…
r be allowed to be loaded via this mode unless they are explicitly allowlisted by the user via `torch.serialization.add_safe_globals`. We recommend you start setting `weights_only=True` for any use case where you don't have full control of the loaded file. Please open an issue on GitHub for any issues related to this experimental feature.
  ckpt = torch.load(teacher_weights, map_location=device)  # load checkpoint
Overriding model.yaml nc=80 with nc=1

                 from  n    params  module                                  arguments                     
  0                -1  1      1160  models.common.Conv                      [3, 40, 3, 1]                 
  1                -1  1     28960  models.common.Conv                      [40, 80, 3, 2]                
  2                -1  1     57760  models.common.Conv                      [80, 80, 3, 1]                
  3                -1  1    115520  models.common.Conv                      [80, 160, 3, 2]               
  4                -1  1     10368  models.common.Conv                      [160, 64, 1, 1]               
  5                -2  1     10368  models.common.Conv                      [160, 64, 1, 1]               
  6                -1  1     36992  models.common.Conv                      [64, 64, 3, 1]                
  7                -1  1     36992  models.common.Conv                      [64, 64, 3, 1]                
  8                -1  1     36992  models.common.Conv                      [64, 64, 3, 1]                
  9                -1  1     36992  models.common.Conv                      [64, 64, 3, 1]                
 10                -1  1     36992  models.common.Conv                      [64, 64, 3, 1]                
 11                -1  1     36992  models.common.Conv                      [64, 64, 3, 1]                
 12[-1, -3, -5, -7, -8]  1         0  models.common.Concat                    [1]                           
 13                -1  1    103040  models.common.Conv                      [320, 320, 1, 1]              
 14                -1  1         0  models.common.MP                        []                            
 15                -1  1     51520  models.common.Conv                      [320, 160, 1, 1]              
 16                -3  1     51520  models.common.Conv                      [320, 160, 1, 1]              
 17                -1  1    230720  models.common.Conv                      [160, 160, 3, 2]              
 18          [-1, -3]  1         0  models.common.Concat                    [1]                           
 19                -1  1     41216  models.common.Conv                      [320, 128, 1, 1]              
 20                -2  1     41216  models.common.Conv                      [320, 128, 1, 1]              
 21                -1  1    147712  models.common.Conv                      [128, 128, 3, 1]              
 22                -1  1    147712  models.common.Conv                      [128, 128, 3, 1]              
 23                -1  1    147712  models.common.Conv                      [128, 128, 3, 1]              
 24                -1  1    147712  models.common.Conv                      [128, 128, 3, 1]              
 25                -1  1    147712  models.common.Conv                      [128, 128, 3, 1]              
 26                -1  1    147712  models.common.Conv                      [128, 128, 3, 1]              
 27[-1, -3, -5, -7, -8]  1         0  models.common.Concat                    [1]                           
 28                -1  1    410880  models.common.Conv                      [640, 640, 1, 1]              
 29                -1  1         0  models.common.MP                        []                            
 30                -1  1    205440  models.common.Conv                      [640, 320, 1, 1]              
 31                -3  1    205440  models.common.Conv                      [640, 320, 1, 1]              
 32                -1  1    922240  models.common.Conv                      [320, 320, 3, 2]              
 33          [-1, -3]  1         0  models.common.Concat                    [1]                           
 34                -1  1    164352  models.common.Conv                      [640, 256, 1, 1]              
 35                -2  1    164352  models.common.Conv                      [640, 256, 1, 1]              
 36                -1  1    590336  models.common.Conv                      [256, 256, 3, 1]              
 37                -1  1    590336  models.common.Conv                      [256, 256, 3, 1]              
 38                -1  1    590336  models.common.Conv                      [256, 256, 3, 1]              
 39                -1  1    590336  models.common.Conv                      [256, 256, 3, 1]              
 40                -1  1    590336  models.common.Conv                      [256, 256, 3, 1]              
 41                -1  1    590336  models.common.Conv                      [256, 256, 3, 1]              
 42[-1, -3, -5, -7, -8]  1         0  models.common.Concat                    [1]                           
 43                -1  1   1640960  models.common.Conv                      [1280, 1280, 1, 1]            
 44                -1  1         0  models.common.MP                        []                            
 45                -1  1    820480  models.common.Conv                      [1280, 640, 1, 1]             
 46                -3  1    820480  models.common.Conv                      [1280, 640, 1, 1]             
 47                -1  1   3687680  models.common.Conv                      [640, 640, 3, 2]              
 48          [-1, -3]  1         0  models.common.Concat                    [1]                           
 49                -1  1    328192  models.common.Conv                      [1280, 256, 1, 1]             
 50                -2  1    328192  models.common.Conv                      [1280, 256, 1, 1]             
 51                -1  1    590336  models.common.Conv                      [256, 256, 3, 1]              
 52                -1  1    590336  models.common.Conv                      [256, 256, 3, 1]              
 53                -1  1    590336  models.common.Conv                      [256, 256, 3, 1]              
 54                -1  1    590336  models.common.Conv                      [256, 256, 3, 1]              
 55                -1  1    590336  models.common.Conv                      [256, 256, 3, 1]              
 56                -1  1    590336  models.common.Conv                      [256, 256, 3, 1]              
 57[-1, -3, -5, -7, -8]  1         0  models.common.Concat                    [1]                           
 58                -1  1   1640960  models.common.Conv                      [1280, 1280, 1, 1]            
 59                -1  1  11887360  models.common.SPPCSPC                   [1280, 640, 1]                
 60                -1  1    205440  models.common.Conv                      [640, 320, 1, 1]              
 61                -1  1         0  torch.nn.modules.upsampling.Upsample    [None, 2, 'nearest']          
 62                43  1    410240  models.common.Conv                      [1280, 320, 1, 1]             
 63          [-1, -2]  1         0  models.common.Concat                    [1]                           
 64                -1  1    164352  models.common.Conv                      [640, 256, 1, 1]              
 65                -2  1    164352  models.common.Conv                      [640, 256, 1, 1]              
 66                -1  1    590336  models.common.Conv                      [256, 256, 3, 1]              
 67                -1  1    590336  models.common.Conv                      [256, 256, 3, 1]              
 68                -1  1    590336  models.common.Conv                      [256, 256, 3, 1]              
 69                -1  1    590336  models.common.Conv                      [256, 256, 3, 1]              
 70                -1  1    590336  models.common.Conv                      [256, 256, 3, 1]              
 71                -1  1    590336  models.common.Conv                      [256, 256, 3, 1]              
 72[-1, -3, -5, -7, -8]  1         0  models.common.Concat                    [1]                           
 73                -1  1    410240  models.common.Conv                      [1280, 320, 1, 1]             
 74                -1  1     51520  models.common.Conv                      [320, 160, 1, 1]              
 75                -1  1         0  torch.nn.modules.upsampling.Upsample    [None, 2, 'nearest']          
 76                28  1    102720  models.common.Conv                      [640, 160, 1, 1]              
 77          [-1, -2]  1         0  models.common.Concat                    [1]                           
 78                -1  1     41216  models.common.Conv                      [320, 128, 1, 1]              
 79                -2  1     41216  models.common.Conv                      [320, 128, 1, 1]              
 80                -1  1    147712  models.common.Conv                      [128, 128, 3, 1]              
 81                -1  1    147712  models.common.Conv                      [128, 128, 3, 1]              
 82                -1  1    147712  models.common.Conv                      [128, 128, 3, 1]              
 83                -1  1    147712  models.common.Conv                      [128, 128, 3, 1]              
 84                -1  1    147712  models.common.Conv                      [128, 128, 3, 1]              
 85                -1  1    147712  models.common.Conv                      [128, 128, 3, 1]              
 86[-1, -3, -5, -7, -8]  1         0  models.common.Concat                    [1]                           
 87                -1  1    102720  models.common.Conv                      [640, 160, 1, 1]              
 88                -1  1         0  models.common.MP                        []                            
 89                -1  1     25920  models.common.Conv                      [160, 160, 1, 1]              
 90                -3  1     25920  models.common.Conv                      [160, 160, 1, 1]              
 91                -1  1    230720  models.common.Conv                      [160, 160, 3, 2]              
 92      [-1, -3, 73]  1         0  models.common.Concat                    [1]                           
 93                -1  1    164352  models.common.Conv                      [640, 256, 1, 1]              
 94                -2  1    164352  models.common.Conv                      [640, 256, 1, 1]              
 95                -1  1    590336  models.common.Conv                      [256, 256, 3, 1]              
 96                -1  1    590336  models.common.Conv                      [256, 256, 3, 1]              
 97                -1  1    590336  models.common.Conv                      [256, 256, 3, 1]              
 98                -1  1    590336  models.common.Conv                      [256, 256, 3, 1]              
 99                -1  1    590336  models.common.Conv                      [256, 256, 3, 1]              
100                -1  1    590336  models.common.Conv                      [256, 256, 3, 1]              
101[-1, -3, -5, -7, -8]  1         0  models.common.Concat                    [1]                           
102                -1  1    410240  models.common.Conv                      [1280, 320, 1, 1]             
103                -1  1         0  models.common.MP                        []                            
104                -1  1    103040  models.common.Conv                      [320, 320, 1, 1]              
105                -3  1    103040  models.common.Conv                      [320, 320, 1, 1]              
106                -1  1    922240  models.common.Conv                      [320, 320, 3, 2]              
107      [-1, -3, 59]  1         0  models.common.Concat                    [1]                           
108                -1  1    656384  models.common.Conv                      [1280, 512, 1, 1]             
109                -2  1    656384  models.common.Conv                      [1280, 512, 1, 1]             
110                -1  1   2360320  models.common.Conv                      [512, 512, 3, 1]              
111                -1  1   2360320  models.common.Conv                      [512, 512, 3, 1]              
112                -1  1   2360320  models.common.Conv                      [512, 512, 3, 1]              
113                -1  1   2360320  models.common.Conv                      [512, 512, 3, 1]              
114                -1  1   2360320  models.common.Conv                      [512, 512, 3, 1]              
115                -1  1   2360320  models.common.Conv                      [512, 512, 3, 1]              
116[-1, -3, -5, -7, -8]  1         0  models.common.Concat                    [1]                           
117                -1  1   1639680  models.common.Conv                      [2560, 640, 1, 1]             
118                87  1    461440  models.common.Conv                      [160, 320, 3, 1]              
119               102  1   1844480  models.common.Conv                      [320, 640, 3, 1]              
120               117  1   7375360  models.common.Conv                      [640, 1280, 3, 1]             
121   [118, 119, 120]  1     42668  models.yolo.IDetect                     [1, [[12, 16, 19, 36, 40, 28], [36, 75, 76, 55, 72, 146], [142, 110, 192, 243, 459, 401]], [320, 640, 1280]]
/root/anaconda3/lib/python3.10/site-packages/torch/functional.py:513: UserWarning: torch.meshgrid: in an upcoming release, it will be required to pass the indexing argument. (Triggered internally at /opt/conda/conda-bld/pytorch_1720538438429/work/aten/src/ATen/native/TensorShape.cpp:3609.)
…
r be allowed to be loaded via this mode unless they are explicitly allowlisted by the user via `torch.serialization.add_safe_globals`. We recommend you start setting `weights_only=True` for any use case where you don't have full control of the loaded file. Please open an issue on GitHub for any issues related to this experimental feature.
  ckpt = torch.load(student_weights, map_location=device)  # load checkpoint
Overriding model.yaml nc=80 with nc=1

                 from  n    params  module                                  arguments                     
  0                -1  1       928  models.common.Conv                      [3, 32, 3, 2, None, 1, LeakyReLU(negative_slope=0.1)]
  1                -1  1     18560  models.common.Conv                      [32, 64, 3, 2, None, 1, LeakyReLU(negative_slope=0.1)]
  2                -1  1      2112  models.common.Conv                      [64, 32, 1, 1, None, 1, LeakyReLU(negative_slope=0.1)]
  3                -2  1      2112  models.common.Conv                      [64, 32, 1, 1, None, 1, LeakyReLU(negative_slope=0.1)]
  4                -1  1      9280  models.common.Conv                      [32, 32, 3, 1, None, 1, LeakyReLU(negative_slope=0.1)]
  5                -1  1      9280  models.common.Conv                      [32, 32, 3, 1, None, 1, LeakyReLU(negative_slope=0.1)]
  6  [-1, -2, -3, -4]  1         0  models.common.Concat                    [1]                           
  7                -1  1      8320  models.common.Conv                      [128, 64, 1, 1, None, 1, LeakyReLU(negative_slope=0.1)]
  8                -1  1         0  models.common.MP                        []                            
  9                -1  1      4224  models.common.Conv                      [64, 64, 1, 1, None, 1, LeakyReLU(negative_slope=0.1)]
 10                -2  1      4224  models.common.Conv                      [64, 64, 1, 1, None, 1, LeakyReLU(negative_slope=0.1)]
 11                -1  1     36992  models.common.Conv                      [64, 64, 3, 1, None, 1, LeakyReLU(negative_slope=0.1)]
 12                -1  1     36992  models.common.Conv                      [64, 64, 3, 1, None, 1, LeakyReLU(negative_slope=0.1)]
 13  [-1, -2, -3, -4]  1         0  models.common.Concat                    [1]                           
 14                -1  1     33024  models.common.Conv                      [256, 128, 1, 1, None, 1, LeakyReLU(negative_slope=0.1)]
 15                -1  1         0  models.common.MP                        []                            
 16                -1  1     16640  models.common.Conv                      [128, 128, 1, 1, None, 1, LeakyReLU(negative_slope=0.1)]
 17                -2  1     16640  models.common.Conv                      [128, 128, 1, 1, None, 1, LeakyReLU(negative_slope=0.1)]
 18                -1  1    147712  models.common.Conv                      [128, 128, 3, 1, None, 1, LeakyReLU(negative_slope=0.1)]
 19                -1  1    147712  models.common.Conv                      [128, 128, 3, 1, None, 1, LeakyReLU(negative_slope=0.1)]
 20  [-1, -2, -3, -4]  1         0  models.common.Concat                    [1]                           
 21                -1  1    131584  models.common.Conv                      [512, 256, 1, 1, None, 1, LeakyReLU(negative_slope=0.1)]
 22                -1  1         0  models.common.MP                        []                            
 23                -1  1     66048  models.common.Conv                      [256, 256, 1, 1, None, 1, LeakyReLU(negative_slope=0.1)]
 24                -2  1     66048  models.common.Conv                      [256, 256, 1, 1, None, 1, LeakyReLU(negative_slope=0.1)]
 25                -1  1    590336  models.common.Conv                      [256, 256, 3, 1, None, 1, LeakyReLU(negative_slope=0.1)]
 26                -1  1    590336  models.common.Conv                      [256, 256, 3, 1, None, 1, LeakyReLU(negative_slope=0.1)]
 27  [-1, -2, -3, -4]  1         0  models.common.Concat                    [1]                           
 28                -1  1    525312  models.common.Conv                      [1024, 512, 1, 1, None, 1, LeakyReLU(negative_slope=0.1)]
 29                -1  1    131584  models.common.Conv                      [512, 256, 1, 1, None, 1, LeakyReLU(negative_slope=0.1)]
 30                -2  1    131584  models.common.Conv                      [512, 256, 1, 1, None, 1, LeakyReLU(negative_slope=0.1)]
 31                -1  1         0  models.common.SP                        [5]                           
 32                -2  1         0  models.common.SP                        [9]                           
 33                -3  1         0  models.common.SP                        [13]                          
 34  [-1, -2, -3, -4]  1         0  models.common.Concat                    [1]                           
 35                -1  1    262656  models.common.Conv                      [1024, 256, 1, 1, None, 1, LeakyReLU(negative_slope=0.1)]
 36          [-1, -7]  1         0  models.common.Concat                    [1]                           
 37                -1  1    131584  models.common.Conv                      [512, 256, 1, 1, None, 1, LeakyReLU(negative_slope=0.1)]
 38                -1  1     33024  models.common.Conv                      [256, 128, 1, 1, None, 1, LeakyReLU(negative_slope=0.1)]
 39                -1  1         0  torch.nn.modules.upsampling.Upsample    [None, 2, 'nearest']          
 40                21  1     33024  models.common.Conv                      [256, 128, 1, 1, None, 1, LeakyReLU(negative_slope=0.1)]
 41          [-1, -2]  1         0  models.common.Concat                    [1]                           
 42                -1  1     16512  models.common.Conv                      [256, 64, 1, 1, None, 1, LeakyReLU(negative_slope=0.1)]
 43                -2  1     16512  models.common.Conv                      [256, 64, 1, 1, None, 1, LeakyReLU(negative_slope=0.1)]
 44                -1  1     36992  models.common.Conv                      [64, 64, 3, 1, None, 1, LeakyReLU(negative_slope=0.1)]
 45                -1  1     36992  models.common.Conv                      [64, 64, 3, 1, None, 1, LeakyReLU(negative_slope=0.1)]
 46  [-1, -2, -3, -4]  1         0  models.common.Concat                    [1]                           
 47                -1  1     33024  models.common.Conv                      [256, 128, 1, 1, None, 1, LeakyReLU(negative_slope=0.1)]
 48                -1  1      8320  models.common.Conv                      [128, 64, 1, 1, None, 1, LeakyReLU(negative_slope=0.1)]
 49                -1  1         0  torch.nn.modules.upsampling.Upsample    [None, 2, 'nearest']          
 50                14  1      8320  models.common.Conv                      [128, 64, 1, 1, None, 1, LeakyReLU(negative_slope=0.1)]
 51          [-1, -2]  1         0  models.common.Concat                    [1]                           
 52                -1  1      4160  models.common.Conv                      [128, 32, 1, 1, None, 1, LeakyReLU(negative_slope=0.1)]
 53                -2  1      4160  models.common.Conv                      [128, 32, 1, 1, None, 1, LeakyReLU(negative_slope=0.1)]
 54                -1  1      9280  models.common.Conv                      [32, 32, 3, 1, None, 1, LeakyReLU(negative_slope=0.1)]
 55                -1  1      9280  models.common.Conv                      [32, 32, 3, 1, None, 1, LeakyReLU(negative_slope=0.1)]
 56  [-1, -2, -3, -4]  1         0  models.common.Concat                    [1]                           
 57                -1  1      8320  models.common.Conv                      [128, 64, 1, 1, None, 1, LeakyReLU(negative_slope=0.1)]
 58                -1  1     73984  models.common.Conv                      [64, 128, 3, 2, None, 1, LeakyReLU(negative_slope=0.1)]
 59          [-1, 47]  1         0  models.common.Concat                    [1]                           
 60                -1  1     16512  models.common.Conv                      [256, 64, 1, 1, None, 1, LeakyReLU(negative_slope=0.1)]
 61                -2  1     16512  models.common.Conv                      [256, 64, 1, 1, None, 1, LeakyReLU(negative_slope=0.1)]
 62                -1  1     36992  models.common.Conv                      [64, 64, 3, 1, None, 1, LeakyReLU(negative_slope=0.1)]
 63                -1  1     36992  models.common.Conv                      [64, 64, 3, 1, None, 1, LeakyReLU(negative_slope=0.1)]
 64  [-1, -2, -3, -4]  1         0  models.common.Concat                    [1]                           
 65                -1  1     33024  models.common.Conv                      [256, 128, 1, 1, None, 1, LeakyReLU(negative_slope=0.1)]
 66                -1  1    295424  models.common.Conv                      [128, 256, 3, 2, None, 1, LeakyReLU(negative_slope=0.1)]
 67          [-1, 37]  1         0  models.common.Concat                    [1]                           
 68                -1  1     65792  models.common.Conv                      [512, 128, 1, 1, None, 1, LeakyReLU(negative_slope=0.1)]
 69                -2  1     65792  models.common.Conv                      [512, 128, 1, 1, None, 1, LeakyReLU(negative_slope=0.1)]
 70                -1  1    147712  models.common.Conv                      [128, 128, 3, 1, None, 1, LeakyReLU(negative_slope=0.1)]
 71                -1  1    147712  models.common.Conv                      [128, 128, 3, 1, None, 1, LeakyReLU(negative_slope=0.1)]
 72  [-1, -2, -3, -4]  1         0  models.common.Concat                    [1]                           
 73                -1  1    131584  models.common.Conv                      [512, 256, 1, 1, None, 1, LeakyReLU(negative_slope=0.1)]
 74                57  1     73984  models.common.Conv                      [64, 128, 3, 1, None, 1, LeakyReLU(negative_slope=0.1)]
 75                65  1    295424  models.common.Conv                      [128, 256, 3, 1, None, 1, LeakyReLU(negative_slope=0.1)]
 76                73  1   1180672  models.common.Conv                      [256, 512, 3, 1, None, 1, LeakyReLU(negative_slope=0.1)]
 77      [74, 75, 76]  1     17132  models.yolo.IDetect                     [1, [[10, 13, 16, 30, 33, 23], [30, 61, 62, 45, 59, 119], [116, 90, 156, 198, 373, 326]], [128, 256, 512]]
Model Summary: 263 layers, 6014988 parameters, 6014988 gradients, 13.2 GFLOPS

Transferred 330/344 items from yolov7-tiny.pt
Scaled weight_decay = 0.0005
student_optimizer groups: 58 .bias, 58 conv.weight, 61 other
…
